lstm_rainfall_model.pth (torch, 205792 bytes, 9 tensors)

lstm.weight_ih_l0 f4 [256, 1]
00000000: 75e5 293f e7e1 59be d943 003f 0a56 213f
00000010: a5ca 8e3e 69ff 2a3f c51b ecbd 7408 e3be
00000020: 5c6d b23e 8b94 233f e427 1dbd 7bdd 6d3f
00000030: 0688 513f f0e2 acbe 6184 21be 1ae9 193f
00000040: f746 dcbe 1053 513f 75bf 323f 359d 55be
00000050: a160 64be 1ab3 e93e 732b 7c3e 9d85 203f
00000060: a5db 203f 9ca9 1a3f 2d86 103f 2fe1 a8be
00000070: 4359 0f3f 93c0 903d 0a11 a53e c29b f13e
00000080: 440f 2e3f f93f 323b a29a dc3e e937 513f
00000090: 3090 14be 0e0e 103f 3c21 2a3f d545 093f
000000a0: 6662 eebe 7c30 09bf 0e18 bb3e 8d67 273f
000000b0: 4207 86bf 3070 5d3e cb72 2d3d 4be1 46be
000000c0: 5765 38bc e704 9f3d 6fb4 18bf f5ab 38bf
000000d0: e348 713e a06c 073f 2ffc e73e 12e1 7abe
000000e0: d734 bdbe 1bbd 8f3d bb18 8b3e 252e d83e
000000f0: 71e2 b33d b775 a2be f094 9abe 8e1d 32be
00000100: 1c2c 093f e2c3 8fbe 90a1 f13e a97b acbe
00000110: 1e8e cd3e 29cf 9a3e e7c2 ab3e dc38 443d
00000120: f2c9 003f 15ca 543e 71ca d23d e594 953e
00000130: 1b4d b93e f657 d93e 4b98 0c3f d427 b53e
00000140: d767 8dbd 3078 f63e a775 853e f78a 4fbe
00000150: f2f4 e9be dffa 7b3c a665 453f ed15 c83e
00000160: 2c5c 37be f67b 32bc 712e 163f 933a b6be
00000170: fe01 853e 56fe 8abe b8d0 b1be 3d68 a43d
00000180: 881e 773e 1530 233f 4b3c 8a3e da38 ab3e
00000190: 2e10 81be ccee c93e b446 4d3e 4e7c c2bd
000001a0: 7838 1b3f f510 b0be f244 5c3e ebcf 3cbd
000001b0: 99a2 10c0 73f8 d63d 82ba f33d b90e c93e
000001c0: 5ae3 023f 5a6c d03d 85c1 a3be 85bc 96be
000001d0: d64b b03e 9ca2 9fbe 8265 eebe 6ef4 20bd
000001e0: 059f 4c3e 72e1 433e 8448 eebe c1e2 a83e
000001f0: ba19 efbd d810 24bf e07f 05bd 36c5 d9bd
00000200: 10c2 25bf e655 9f3d 44f1 043f ec5d 213f
00000210: 0dd3 bcbe 44e3 24bf e789 de3e 1aad 49bd
00000220: 621a 133f c095 673f 9d46 a0bd 64b4 6d3f
00000230: ed7b 493f c90e 6a3e cbd3 143e 21eb 4b3f
00000240: 4605 0bbd fa47 24bf 38d8 093f d2d4 4bbd
00000250: c28b 3d3e 29d3 e33e 1ca0 1fbf bfbe 2ebf
00000260: 842c 08bf 1a78 243f 7420 2fbf aea4 c4bd
00000270: 7609 da3e b5af 0e3f a8be 1e3f 9d22 d6be
00000280: 0b7e 433f b184 d5be b993 acbe 0617 5ebf
00000290: cc4f 4a3d 18f0 15bf b37d 413f b94f 39bf
000002a0: 286e c43e 992f a5ba b44f 0dbf 9f25 2bbf
000002b0: 3bcd 1140 51c0 a2be 706f b53c 348a 303f
000002c0: d24c dabe 1619 453e d1f1 aabe 3b91 863e
000002d0: 881d c5be feb6 01bf 7e4b 6a3f f46c f63c
000002e0: 2e54 613d bc0c a2be ec66 5dbf 5a90 d9be
000002f0: 406b 2cbd 77cd 7cbf ed8e 40bd 5682 9a3c
00000300: f278 423f 4a4a 87be 6934 283f f420 183f
00000310: 632d 673e 183f 373f 8d9b 973e ce12 b3be
00000320: b08a f13e 57a3 453f a369 eb3d cfbe 3d3f
00000330: 1aee 2f3f 1aaa 27be df5a 903c 8dd1 193f
00000340: 3155 07bf f71b 4f3f 66a1 1a3f 9720 2dbe
00000350: 56f9 10bf d654 f03e c7bf 2b3f af15 523f
00000360: 587d 073f 5f6b 043f 1812 793f 1b07 63be
00000370: b350 fa3e 2547 3c3d 3372 ae3e 7088 093f
00000380: 9f34 303f 4cac 713e c785 bf3e 27ff 353f
00000390: 512f f5bd 0052 183f 07b0 253f 7850 f13e
000003a0: 768a 733e c7a2 c7be 0cbb f43e 0c8b 2c3f
000003b0: 2430 c7bf 725a a43e 0950 373e 03f6 813e
000003c0: f36f 943e 3f19 413d 28d3 18bf c7b2 27bf
000003d0: ef71 c93e bf58 fd3e c49c 093f f143 95be
000003e0: 047e adbe 65d1 193e 0900 053e 055a 003f
000003f0: 5e6a c23d 8feb cabe be46 c5be b1c3 12be
0.6636575 -0.21277581 0.5010353 0.6302191 0.2788898 0.66795975 -0.11528734 -0.44342387
0.3484906 0.63898534 -0.03836812 0.9291608 0.8184818 -0.3376689 -0.15773155 0.6012131
-0.43022892 0.8176737 0.6982339 -0.20860751 -0.22302486 0.45644456 0.2462595 0.6270388
0.6283515 0.60415053 0.56454736 -0.329843 0.5599558 0.070679806 0.32239562 0.47189146
0.67992043 0.0027198775 0.43086725 0.8172594 -0.14508128 0.56271446 0.6645696 0.5362218
-0.46559447 -0.53589606 0.3654179 0.6539238 -1.0470965 0.21624827 0.042345803 -0.1942188
-0.01125463 0.07764607 -0.5965032 -0.72137386 0.2356296 0.52900124 0.45309588 -0.2449992
-0.36954376 0.07018491 0.27167305 0.42222705 0.08783425 -0.31730434 -0.30191755 -0.17394087
0.5358293 -0.28079134 0.47193575 -0.33688095 0.4014749 0.30236176 0.33547136 0.047905788
0.50308144 0.20780213 0.10292519 0.2921516 0.3619164 0.4244992 0.5491988 0.3538195
-0.069045715 0.4813857 0.26066324 -0.20267855 -0.4569469 0.015379637 0.7710823 0.39079228
-0.17906255 -0.010893812 0.58664614 -0.35591564 0.25978082 -0.27147168 -0.34729552 0.080276944
0.2413274 0.6374524 0.26999125 0.33441812 -0.25207657 0.3944 0.20046502 -0.094963655
0.6063304 -0.34387937 0.21510676 -0.046096724 -2.2599242 0.10496607 0.11900808 0.39269045
0.5112816 0.101769164 -0.3198358 -0.29440704 0.34432858 -0.3117875 -0.4656182 -0.039295606
0.19982536 0.1912897 -0.465397 0.329855 -0.11674829 -0.640882 -0.032592654 -0.10633318
-0.6474924 0.07780056 0.5193064 0.6303394 -0.3687977 -0.6440928 0.43464586 -0.04923735
0.5746213 0.90462875 -0.078259684 0.9285338 0.7870472 0.22857203 0.14533918 0.79655653
-0.033940576 -0.6417233 0.5384555 -0.04976351 0.18510345 0.4449704 -0.6235368 -0.68259805
-0.53192925 0.6424576 -0.68408895 -0.09601723 0.42585343 0.5573686 0.6200967 -0.41823283
0.763642 -0.41702798 -0.33706453 -0.8675388 0.049392506 -0.5856948 0.75582427 -0.7238727
0.38365293 -0.0012602686 -0.5519974 -0.6685428 2.2781513 -0.3178735 0.022147864 0.6896088
-0.42636734 0.19247851 -0.33387616 0.26282677 -0.38499093 -0.5066985 0.9152144 0.03008125
0.05501192 -0.3165034 -0.8648517 -0.42492944 -0.04209447 -0.98751014 -0.047011305 0.018860977
0.759658 -0.26423866 0.6570497 0.5942528 0.22575907 0.7158065 0.29610863 -0.34975284
0.47176123 0.7720236 0.11494758 0.74119276 0.6872269 -0.16373482 0.017621456 0.60085374
-0.52864367 0.80902046 0.60402524 -0.16906963 -0.56630456 0.46939725 0.67089504 0.82064337
0.52925634 0.51726335 0.97293234 -0.2217068 0.48889694 0.045966286 0.34071502 0.5372381
0.68830293 0.23600882 0.37406752 0.71092457 -0.119719155 0.5950012 0.6472172 0.47131705
0.23783287 -0.38991377 0.47798955 0.6739967 -1.5561566 0.32100254 0.17901625 0.25383005
0.2899166 0.047143217 -0.596972 -0.6550717 0.39344737 0.4948177 0.5375483 -0.29153398
-0.33885205 0.15021284 0.12988295 0.5013736 0.09492944 -0.39632842 -0.38530535 -0.14332463

lstm.weight_hh_l0 f4 [256, 64]
00000000: 53b5 18bf 62c6 b53e 2996 143f 97dc 2a3f
00000010: 7170 77be 457a 2bbf 50df 793e 7aa9 053d
00000020: a662 203f 787d 123f e3ac 54bd 8909 f83e
00000030: 388d 243f a2b3 f03e a4d2 a33e 80eb 2b3f
00000040: c6c2 0a3d 9df6 d6be 9cdb 5f3f f1f4 1abe
00000050: 1aa9 e93e 8b28 2a3f b530 35bf 72fa 19bf
00000060: ac31 1cbf fc37 003f 834b 29bf 223c f4bd
00000070: 6203 f33e 2dcb e73e cf69 5e3f 806e b6be
00000080: 89fc 083f 2ee3 92be 8bfc 17bf d914 ffbe
00000090: ca8e eebb 77e1 17bf c84c 573f cef1 0fbf
000000a0: 6e39 003f 8aac d63c 65e6 20be b6bb 17bf
000000b0: 10ec e3bc 3e21 b8be a517 5c3d 3862 f93e
000000c0: ab96 b6be ec44 853e 72e3 bcbd c7fa 9c3e
000000d0: c7b2 24bf 386a 8cbf 0f26 fe3e acd2 173d
000000e0: 558c 4b3e 9105 92be bae2 39bf 9018 15bf
000000f0: a9f5 89be cef6 2abf 1cde 44be 6dde 3c3e
00000100: 6087 e03b acf3 8cbd f86d 8abd 1707 b33d
00000110: cbaa 133d fd50 913e 7ff0 d43d 036e c9bd
00000120: f0f7 ddbd bc6b b8be 5811 9ebd f508 21be
00000130: c9a7 82be b43e 07be f28f 4abd 735b 86be
00000140: 0425 0fbe f811 343e e098 8d3d 1304 d1bd
00000150: 6780 1c3d 0ea6 9dbd f470 06bd 414a 413d
00000160: 179c 403d 96be 82be 0890 473e 708a e4bd
00000170: 0154 8cbd 2bfd f9bd 7d16 fc3c 53f8 cabd
00000180: 3dcc a3be b988 103d 5bad 133e 839b 7e3e
00000190: 2ccf d8bd 0a15 b43c 3326 9fbe 5387 f73d
000001a0: f786 6cbc a032 cfbd 2eda 1b3e eff0 303e
000001b0: 41a5 563e a39b ed3c b163 ccbd 9500 0ebd
000001c0: 26a5 283e b19a ecbd 8816 243d bb5f ebbd
000001d0: 1b6c 043e 2cad ac3d b78a 5bbe 8663 bb3d
000001e0: 0bc3 9d3d 13e9 92bd 5d13 d23d 9334 013e
000001f0: 8e64 adbd 358a 093e e98e cebd 4fca ca3d
00000200: 4874 c3be ee98 203e 7956 103f 3136 0f3f
00000210: c279 11be 8fed d0be 7dca 3d3d 90b4 073a
00000220: 9109 213f e578 8b3e 37c1 3dbd 4a0f ce3e
00000230: e7aa d83e e217 0c3e 4168 c83d 62e2 e33e
00000240: a377 4d3d d2bc 0bbe ee58 223f 5db9 98b9
00000250: 292e 023e 61aa d13e a713 c8be ab44 f2be
00000260: 9135 e9be 45af 6b3e 4b5a 07bf a67c b9bd
00000270: 7c47 093f f7e7 303e d5c1 053f 7cb2 a8be
00000280: 0936 bf3e 7617 87be 5b55 08bf 3112 eabe
00000290: 16ad 0bbc 1c65 d7be 8da0 db3e 01b2 82be
000002a0: bc7f 063f 821e 5b3d db06 643b 781a 45be
000002b0: b2ca 01bd cbad 36be 0986 2dbe e6e6 a73d
000002c0: 07ec f5bd e22e b73e 3877 06be e47f 2bbd
000002d0: 8746 2dbf 49e9 34bf ad52 513e 4208 5b3d
000002e0: 81bf 8c3d 6102 8cbe 0db5 b1be fe20 acbe
000002f0: 47c2 7bbe 32fb b4be 2722 2abd 7751 9f3c
00000300: 4b18 9e3d 70a9 15be 77a4 343e 19ec 783d
00000310: 50fd af3d 860d 84be 3ed8 c2bb 36a9 743b
00000320: b82a 9ebd e3a0 ef3d d3fd 26be a8ff a43e
00000330: dc23 2a3e 5242 d33d 5bd5 613e d922 4c3d
00000340: 921e 0cbe 2b54 5bbd 05df 33bd 28c3 fc3b
00000350: 0a46 49be 36a7 b6bc 55a4 ec3d 6a27 4bbe
00000360: 5402 9a3d c764 a93d 496a 913c 9b7e 8ebe
00000370: 99bd b23d 2f7b 63be 658d c23d e4e1 74bc
00000380: 87ac 143e 5aef 903d 1fef e23c c9aa 82be
00000390: 7279 503e 634c 2bbb bfaf e2bd 6679 c53c
000003a0: f7b3 e03d 3ad7 0d3e a34f fe3e e7a4 3bbd
000003b0: 8c5e 36be 7875 31bd b583 16be 115b 8a3d
000003c0: 980b 513d ff4c 4e3d 96e2 053d 030c 71be
000003d0: e479 6dbc 8291 173d 9a31 1bbd 2095 9d3d
000003e0: e615 d23d 6613 a03d 3a05 0a3e e1ab 9ebd
000003f0: dec8 143d 251e 123e 51ea 163e 3d92 efbc
-0.5965168 0.35502917 0.58041626 0.66742843 -0.24163987 -0.66983443 0.24401593 0.03263233
0.62650526 0.572227 -0.05192269 0.48444775 0.6427798 0.4701205 0.31996644 0.6715622
0.033877157 -0.41985026 0.8744447 -0.151325 0.45636827 0.66468114 -0.70777446 -0.60147774
-0.61013293 0.50085425 -0.66130847 -0.11925532 0.47463518 0.45272198 0.868802 -0.3563118
0.5351034 -0.2868895 -0.59369725 -0.49820593 -0.0072802054 -0.5932841 0.84101534 -0.5622834
0.5008763 0.02620532 -0.15712889 -0.592708 -0.027822524 -0.35962862 0.053733487 0.48707747
-0.35661826 0.26029146 -0.09223069 0.30660078 -0.6433529 -1.0969915 0.4963841 0.037066147
0.19877751 -0.28519872 -0.7261158 -0.58240604 -0.26945236 -0.66782844 -0.19225353 0.18444224
0.0068520755 -0.06882414 -0.06759256 0.08741587 0.036051553 0.28382102 0.103974335 -0.09835436
-0.10838306 -0.36019695 -0.07718152 -0.15726073 -0.25518635 -0.13207513 -0.049453683 -0.26241645
-0.13978964 0.1758498 0.06913924 -0.10205855 0.03820839 -0.07697688 -0.032822564 0.047189955
0.04702386 -0.2553603 0.19488537 -0.11159217 -0.0685196 -0.12206491 0.030772442 -0.09910645
-0.3199176 0.03528664 0.14421599 0.2486401 -0.1058639 0.021982688 -0.3108383 0.12086358
-0.014436475 -0.10117078 0.15219948 0.17279409 0.20961477 0.029004877 -0.09979952 -0.034668524
0.16469249 -0.115529425 0.04006055 -0.114928685 0.12931864 0.084314674 -0.21439634 0.09149842
0.07703217 -0.07173362 0.102575995 0.12617712 -0.08466445 0.13431628 -0.10085852 0.099018686
-0.38174653 0.15683338 0.56381947 0.55942065 -0.14206603 -0.40806243 0.046335686 0.0005176747
0.6290522 0.27240673 -0.046326842 0.4024604 0.42317888 0.13680986 0.0978551 0.44508654
0.050162923 -0.13646248 0.63416946 -0.00029129806 0.12712921 0.409503 -0.39077494 -0.47318015
-0.4554868 0.23016079 -0.5287215 -0.09056978 0.536247 0.17275988 0.5224889 -0.32948673
0.37345913 -0.26385087 -0.5325524 -0.45717004 -0.008525154 -0.42069328 0.42895928 -0.2552643
0.5253866 0.05349589 0.0034794125 -0.19248378 -0.031687446 -0.17839734 -0.16945662 0.08198337
-0.12007909 0.35777956 -0.13131416 -0.041870013 -0.6768574 -0.70668465 0.20441695 0.053474672
0.06872464 -0.27345565 -0.34708443 -0.3361892 -0.2458583 -0.35347897 -0.041536476 0.019448025
0.07719477 -0.14615417 0.17640863 0.060772035 0.085932374 -0.25791568 -0.0059461882 0.0037332303
-0.07722992 0.117006086 -0.16307764 0.322263 0.16615242 0.10315384 0.22054045 0.04983792
-0.13683537 -0.053547066 -0.04391386 0.007713694 -0.19655624 -0.02229653 0.11554781 -0.19839254
0.07519975 0.08271175 0.017750876 -0.27830967 0.08727569 -0.2221496 0.09499625 -0.014946435
0.14518939 0.07076903 0.027701912 -0.25520924 0.20358828 -0.002613806 -0.11068677 0.024105739
0.109718256 0.13851634 0.49670133 -0.04581156 -0.17809504 -0.043324918 -0.1469868 0.06755651
0.051036447 0.050366398 0.032686792 -0.23539738 -0.014494393 0.037004 -0.0378891 0.07694459
0.10258083 0.078162 0.13478556 -0.07747627 0.036324374 0.14269312 0.14737822 -0.029244537

lstm.bias_ih_l0 f4 [256]
00000000: fe8c 89be 2fa0 74bf 6ef8 90be 32a1 d5bd
00000010: 8095 f8be e02f d3bd b48f 46bf 6d50 b7bf
00000020: 8fb7 85be 58a7 1f3e 8213 a7bf 1bec 893b
00000030: 0deb 6ebb 5cec 45bf 3354 85bf 7e0a 153e
00000040: 93c9 babf 1dd8 66be df31 5fbd cc89 a6bf
00000050: 4df9 7cbf 8cd8 d1be 33b2 85bd 886f 4d3d
00000060: 5183 bdbd c9da f13d b439 c7bd a335 a3bf
00000070: 95b3 52be 0735 e9be 1134 6ebe baf6 82be
00000080: 8ba4 373e 378b babe dbb4 12bf f1f9 e33d
00000090: 7f20 90bf 15be 8fbe 38d1 4c3d e88e a13d
000000a0: 72b9 0dbf 9fc8 b7bf ce2f c8be 45c4 48be
000000b0: 4b67 f93d 010a 0bbf d791 96bf 4e8d 3cbe
000000c0: d2cf 1cbf 8f1c 69bf b79e 86bf a84c 6bbf
000000d0: 6494 19bf bbc7 09be c130 863b 9cd3 bdbf
000000e0: 7d07 a2bf 9d6d 15bf 723a 4ebe d113 50be
000000f0: 609f 22bf e138 06bf ff9b 9fbf 5bb5 aabf
00000100: 41c2 cbbd c631 b0be 32de 43be 0401 eabd
00000110: dfcb 28be 8de9 bfbd fb85 81be a995 3fbf
00000120: 3666 b9bc 4fac a4bc 13ed 23bf af21 acbd
00000130: 41c2 05be 5bfb 0abf 8060 f9be fe26 063d
00000140: 9910 3dbf e8a1 b0bd be1f 73be dce2 4abf
00000150: ff81 4bbe d18f 98bd 01c8 633d bde3 0abe
00000160: 73e1 5cbe c4f1 a3be b022 873d d0b6 0dbf
00000170: 4c1b b4be e48b d6bb 328d bebe ecef c5be
00000180: a19b 7fbe 4a19 28be 2560 d1be f14e d53a
00000190: a0df 4abf fe79 a3be c38c 33be 3eb4 24be
000001a0: ee22 35bd fe55 5bbf 67b7 04be ffb2 61be
000001b0: 7957 2c3e 781e 97be 4693 64bf dbe6 7a3e
000001c0: f870 e4be f4f7 73bf 5ef0 09bf cd79 96be
000001d0: 534f 5bbe a167 46be c7de 27be 3275 04bf
000001e0: ea19 52bf 7381 b4be 7940 a4be b779 38be
000001f0: 5e4b 0abf 28df 4cbe 25aa 0ebf 438b 1fbf
00000200: ccdc 8d3d 9491 5e3c 40b5 efbd 8042 a43c
00000210: ae03 00bc 1210 983d e7b3 073d 0fd4 f5bb
00000220: 14c3 76bc fece 5cbd 0395 83bc cdfa fcbd
00000230: e16f f4bc 0b10 78bd 9fe6 9bbd 9213 f5bd
00000240: 54ae 08bb 015e 97bd ab75 dbbc e4f1 5abd
00000250: 467b 7b3d 56f5 253d 8900 65bc 6c57 01bd
00000260: 5186 103e d9dd 26be 07be 54bc 343a bdbc
00000270: f0b9 40bd 4b4d c2bd 7515 0fbc 0baa 5f3d
00000280: 448c 303c 13bf 283d 4497 eb3d fff9 7e3d
00000290: a549 93bc cd65 863c f1f3 823b d157 da3d
000002a0: f2ff d93c bd85 6e3c 5077 4fbc 9aef 203e
000002b0: 0f3e 203d 2f69 823d 431e c5bd 53d3 453c
000002c0: e5f1 51bb cafa d9bc 7e7d 78bd 13a4 89bd
000002d0: 8e6c 8f3d 8b19 843b be44 febd 0487 763d
000002e0: c73d 7b3d 91d6 603d e35e c3bc 441a 043e
000002f0: 9d60 44bd 15d3 9bbb bbe1 b33c c538 6abd
00000300: 0b7d f9bc 990b 72bf 5bee 91be 722a 02be
00000310: 0f94 13bf 2c6f 08be af79 39bf 8c85 babf
00000320: 9f72 dbbd b650 283e 9381 b6bf 61ef 6e3e
00000330: 4c4b 6e3e 2e23 4dbf 8880 89bf bad9 a93e
00000340: 9f05 bdbf d383 0abe b208 a93d 0939 a2bf
00000350: 1f79 5ebf fa30 80be a84c e2bd 88de 98bb
00000360: efc4 7abc d57e 13bd 3ab6 123d 5843 a5bf
00000370: 3dcb 9fbd 4796 20be bc67 3ebe a926 b7be
00000380: b5df 573d 956c ccbe 2c10 eabe 5181 c73e
00000390: 222e 98bf e3b5 40be 311f e03d 1ea8 303e
000003a0: da02 0bbf 9472 bcbf c3ec e3be a8aa 4fbd
000003b0: 425a 163e b71b 12bf 087e 93bf c3de 8b3c
000003c0: 2b33 25bf b062 4dbf 7bfc 8cbf 899b 8dbf
000003d0: 16b8 e4be e705 8fbe b437 29bc 90ad b4bf
000003e0: 8057 8fbf e7eb f4be 5f8b 99be d596 97be
000003f0: 9f64 3fbf a783 1fbf 0bc3 acbf d559 a5bf
-0.2686538 -0.9555692 -0.28314537 -0.10431136 -0.4855156 -0.10311866 -0.77563024 -1.4321419
-0.26116607 0.1559118 -1.3052828 0.004209054 -0.003645602 -0.7731378 -1.041632 0.14554784
-1.4592766 -0.22543378 -0.05449092 -1.3010802 -0.988179 -0.40985525 -0.065281294 0.050155193
-0.09253562 0.11809308 -0.09727803 -1.2750744 -0.20576318 -0.4554827 -0.2326205 -0.25578862
0.17933862 -0.36434337 -0.57307214 0.11131657 -1.1259917 -0.2807471 0.050004214 0.07888585
-0.5536109 -1.43581 -0.39098972 -0.19606121 0.12177905 -0.5431214 -1.1763257 -0.18413278
-0.6125461 -0.910592 -1.0517186 -0.91913843 -0.5999205 -0.13455097 0.0040951674 -1.4830203
-1.2658535 -0.5837038 -0.20139483 -0.2032006 -0.63524437 -0.5243054 -1.2469481 -1.3336595
-0.0994916 -0.34412974 -0.1912773 -0.11425975 -0.1648402 -0.09370718 -0.2529753 -0.7483774
-0.022631746 -0.020101694 -0.6403362 -0.08404862 -0.13062383 -0.5428979 -0.48706436 0.03275203
-0.7385345 -0.08624631 -0.23742577 -0.7925241 -0.19873808 -0.07449306 0.05561066 -0.13563438
-0.21570377 -0.3202039 0.06598413 -0.55357075 -0.35177076 -0.006547438 -0.37217098 -0.38659608
-0.24961711 -0.16415897 -0.40893665 0.0016274137 -0.79247475 -0.3192901 -0.17534165 -0.16084382
-0.044222765 -0.8567809 -0.12960587 -0.22040938 0.16830243 -0.29515433 -0.8928722 0.24502127
-0.44617438 -0.9530022 -0.53882396 -0.29389802 -0.21416979 -0.19375469 -0.16393577 -0.51741326
-0.8207079 -0.35255012 -0.3208044 -0.1801518 -0.5402125 -0.20007002 -0.5572837 -0.6232187
0.06926879 0.013584513 -0.117044926 0.02005124 -0.007813377 0.0742494 0.033130553 -0.007502086
-0.015061159 -0.05390834 -0.016062265 -0.12352524 -0.029838504 -0.060562175 -0.07612347 -0.11966623
-0.002085586 -0.07390977 -0.026789507 -0.05345334 0.06139686 0.040517174 -0.013977178 -0.031577513
0.14113738 -0.16295566 -0.012984759 -0.023099042 -0.047052324 -0.09487399 -0.008733143 0.054605525
0.010775629 0.041197848 0.11503461 0.062250134 -0.017979452 0.016405964 0.0039963652 0.10661281
0.026611302 0.014558253 -0.012662724 0.157164 0.039121684 0.063677184 -0.096249126 0.012074309
-0.003203505 -0.026608843 -0.060666554 -0.06720748 0.07003127 0.0040313653 -0.12415455 0.060187355
0.061338212 0.054892126 -0.023848956 0.12900645 -0.0479437 -0.0047553875 0.021958223 -0.057183046
-0.030455133 -0.94548947 -0.28502163 -0.12711504 -0.57647794 -0.13323659 -0.724513 -1.4572005
-0.107152216 0.16437039 -1.4258293 0.23333503 0.23270911 -0.80131805 -1.074235 0.33173925
-1.476734 -0.1352685 0.082536116 -1.2673656 -0.86903566 -0.25037366 -0.11049777 -0.0046651997
-0.015305742 -0.03600963 0.035818316 -1.2911177 -0.078024365 -0.15682326 -0.18594259 -0.35771683
0.052703578 -0.39926592 -0.45715463 0.38965848 -1.1889079 -0.18819384 0.10943449 0.17251632
-0.54301226 -1.4722466 -0.44516572 -0.05069986 0.14682868 -0.5707354 -1.1522837 0.017073995
-0.645312 -0.8022871 -1.1014551 -1.106309 -0.44671696 -0.2793419 -0.010328222 -1.4115467
-1.1198578 -0.4783623 -0.29989144 -0.29607263 -0.7476291 -0.6231026 -1.3497022 -1.291804

lstm.bias_hh_l0 f4 [256]
00000000: 53ea 19be a9a5 5cbf 0811 6fbe be48 8ebe
00000010: fa06 15bf e303 10be f6e8 45bf b551 b7bf
00000020: a321 93be f5fc 7a3e f0bd aabf 498b 4d3d
00000030: 7f9e 503e acc5 38bf eaea 71bf 9237 133e
00000040: fbf9 c2bf 87b9 a6bd 5ea9 e5bd d42c aebf
00000050: 6c0e 59bf d1df 5fbe 6470 4bbe 49b7 6c3d
00000060: 8b50 92bd d330 c8bd 7ce8 fb3c 3d80 8bbf
00000070: ad6c bdbc 8115 8cbe efa6 85be 6f1c 8dbe
00000080: 7342 603e afe7 04bf fd67 25bf 74f8 713e
00000090: e110 9cbf 7109 29be 6d88 923b be7c 7abd
000000a0: 4e9b 25bf 0c0c aebf 9e0b 95be 94db 9fba
000000b0: c3f3 473e f887 04bf 1d28 8bbf 5e6f 0dbe
000000c0: 5006 27bf f70f 43bf 0a8e 86bf 4c4b 8ebf
000000d0: 480d d4be 6fb7 abbe 7fbd 073d 2ac8 a4bf
000000e0: 3d5e 95bf 9311 0fbf 35f2 8dbe 0bea 30be
000000f0: 9144 04bf 7f5f 18bf 7b44 afbf d0c5 9ebf
00000100: 7a5d 45be 8893 b0be 3cc6 66be f36e 4abe
00000110: 468a 8bbe bdc8 a5be c66c d4be c901 3cbf
00000120: 2aad 67be 1f8b d3bd 0147 53bf 30ce ce3c
00000130: ffc6 09be 85ef ddbe 12dd ebbe 9d8e 4d3b
00000140: f995 4cbf 9ebf 7abe 2c08 71be 2356 37bf
00000150: 9cd2 59be e98a efbc f2d7 abbd c481 4bbe
00000160: 7092 6fbe 190e 9fbd fe40 91bc 3e51 15bf
00000170: f6d4 9bbe 9fee 273d 0609 adbe 80e1 cebe
00000180: 2292 04be 66b8 9dbe 7593 89be 52ca 98bd
00000190: 36fb 2cbf 5797 0ebe 2836 18be e06b 83bc
000001a0: c963 a3bd eaae 47bf 54df 5dbe 6f70 42bd
000001b0: 6d5c 6f3e f03e b4be 0cf1 65bf 6c6e 643e
000001c0: b03d b7be da96 65bf e363 21bf cb41 a1be
000001d0: fbe3 2fbe 7e1f 88be bfdf 20be df1f 37bf
000001e0: 0e69 47bf 1717 d5be 5820 75be fb01 c0be
000001f0: a0c1 36bf 716b d0be 2ccd eabe d9a5 f3be
00000200: cae3 293d 19e3 d1bc 54ee 8d3b 11b2 f6bd
00000210: cb4e 023e 8a2d 4a3d f547 c7bd 3ff3 883c
00000220: ed43 e2bd 0cf6 57bd ba03 7abc 2ff9 b33c
00000230: 8296 b9bd 7c55 78bc 377a 833d 22ab 383c
00000240: 4b9b b2bb 6f69 1a3e b11f 6ebd d6c8 9c3d
00000250: eb10 09bd 193a 1abe 5a6a b03d ffb8 183e
00000260: 12c7 8dbd 16cb 843d 15fd a43d 4f47 e93c
00000270: 9594 3fbc 0d31 c43c e633 52bd 995c f83b
00000280: 0018 04be 6fdc 033d c9c1 b4bd e347 173d
00000290: 6c5a e43c fd07 b73d e828 f7bd f0f9 20bc
000002a0: cf91 fdbd 4d08 5bbd d323 bf3c 51c0 47bd
000002b0: f338 bb3c e4d1 d9ba 6812 d63d d733 e0bd
000002c0: e4f6 683d f356 463d cb74 ae3d 083d b83d
000002d0: e371 9f3c b90f 9c3d 72a7 5e3d 5bc0 6dbd
000002e0: 6b6e 84bd 04da 04bd 5c6c f63d 9df4 acbd
000002f0: f90d b13d 5cf8 2a3d 9b02 1ebd 2c01 4f3d
00000300: d178 37be dafe 84bf 93fa 8ebe 2249 dcbd
00000310: 05d3 f3be 2cbd 84be 69d7 26bf e696 bebf
00000320: f73c 2ebe 1a0f 053e cb77 a0bf 5396 523e
00000330: 65b3 853d 9e54 2fbf a256 82bf 43f2 213e
00000340: 43fb a9bf fb0f 47be 2e96 bbbd 55c9 a7bf
00000350: cb1d 64bf 056a cabe 44d5 88be ab56 143d
00000360: 4428 de3d bb26 db3d 8860 37be 0253 9fbf
00000370: 5a69 83bd 57b4 e7bd bbee 85bd 952e f0be
00000380: d3a9 923e dd1f fdbe f5ab 0abf 5a28 4f3e
00000390: 0efd abbf 62ae c1be e52f 66bc ffd1 ce3d
000003a0: 4cdb ebbe aad8 afbf a497 6ebe 3b79 0dbe
000003b0: 3611 263e 91bb 07bf 2891 91bf 2ca0 44be
000003c0: fbd7 10bf 5a49 30bf b5f4 92bf 250c 87bf
000003d0: 92ca e8be 68fd cabd 894c 0d3e f2a9 b2bf
000003e0: c812 9abf a4e4 fdbe e192 bbbe 5521 b7be
000003f0: 9d6a 3dbf 859b 1ebf 3980 9abf 455e 9ebf
-0.15030794 -0.8619028 -0.2334634 -0.27789873 -0.5821377 -0.14063983 -0.77308595 -1.432181
-0.287366 0.24510558 -1.3339214 0.05018166 0.20372961 -0.72176623 -0.94499075 0.14376667
-1.5232538 -0.08140855 -0.11213945 -1.360743 -0.8478763 -0.21862723 -0.19867092 0.05779198
-0.071442686 -0.097749375 0.030750506 -1.089851 -0.02312311 -0.27360156 -0.26103923 -0.27560756
0.21900348 -0.5191602 -0.646118 0.23629934 -1.2192651 -0.16507508 0.0044718296 -0.06115412
-0.646901 -1.3597426 -0.29110426 -0.0012196177 0.19526581 -0.5176997 -1.0871617 -0.13812014
-0.6524401 -0.76196235 -1.0512097 -1.1116729 -0.41416383 -0.33538386 0.033139702 -1.2873585
-1.1669384 -0.5588619 -0.27723852 -0.1727678 -0.51667124 -0.59520715 -1.3692774 -1.2404118
-0.1927394 -0.34487557 -0.22536558 -0.19768886 -0.27253932 -0.32379714 -0.41489238 -0.73440224
-0.2262465 -0.103292696 -0.8253022 0.025244802 -0.13454817 -0.433468 -0.460671 0.0031365522
-0.7991634 -0.24487159 -0.23538274 -0.7161581 -0.21271747 -0.029241042 -0.08390798 -0.1987372
-0.23395705 -0.07766361 -0.017731186 -0.5832709 -0.30435914 0.04099905 -0.33795947 -0.40406418
-0.1294637 -0.30804747 -0.26870313 -0.074604645 -0.6757082 -0.13924919 -0.14864409 -0.01604265
-0.07978017 -0.7800127 -0.21667224 -0.047470506 0.23375101 -0.35204268 -0.89820933 0.22307748
-0.3578925 -0.89683306 -0.6304304 -0.3149551 -0.17176811 -0.26586527 -0.15710352 -0.71533006
-0.77894676 -0.4161918 -0.2393812 -0.3750151 -0.713892 -0.4070697 -0.4585966 -0.4758747
0.041477002 -0.025620984 0.0043313894 -0.12045682 0.1272537 0.049359836 -0.097305216 0.016717551
-0.11048112 -0.052724883 -0.015259678 0.021969406 -0.0906191 -0.0151571 0.06419795 0.01127127
-0.0054506413 0.15079282 -0.058135692 0.07655494 -0.0334634 -0.15061225 0.08614035 0.1491432
-0.06922735 0.06484048 0.08056084 0.028476385 -0.01169314 0.02394917 -0.051319025 0.007579398
-0.1289978 0.032192644 -0.08826024 0.03693379 0.027875148 0.089370705 -0.12068349 -0.009825215
-0.123813264 -0.053474713 0.023332512 -0.04876739 0.022854304 -0.0016618338 0.104527295 -0.10947388
0.05687608 0.048422765 0.0851837 0.08996016 0.019463485 0.07620186 0.054358907 -0.058044773
-0.06466373 -0.03243448 0.12032387 -0.08445094 0.08645243 0.04174076 -0.038576704 0.050538227
-0.17917182 -1.0390275 -0.27925548 -0.107561365 -0.47621933 -0.25925577 -0.6517244 -1.48898
-0.17015444 0.12994042 -1.2536558 0.20565157 0.065283574 -0.6848849 -1.0182688 0.15815072
-1.3279804 -0.1943969 -0.09159504 -1.3108317 -0.8910796 -0.3953401 -0.2672521 0.036215466
0.10847524 0.107007466 -0.17907917 -1.2447207 -0.064165786 -0.11313694 -0.06539675 -0.4691054
0.2864519 -0.49438372 -0.54168636 0.20230237 -1.3436601 -0.37828356 -0.014049505 0.10098647
-0.46065748 -1.3737996 -0.23300034 -0.13815777 0.16217503 -0.5302058 -1.1372423 -0.19201726
-0.5657956 -0.68861926 -1.1480929 -1.0550581 -0.4546705 -0.09911615 0.13798727 -1.3958113
-1.2036982 -0.495885 -0.36635497 -0.35767618 -0.73990804 -0.61956054 -1.207038 -1.2372519

lstm.weight_ih_l1 f4 [256, 64]
00000000: 3a52 46bf fcf3 c93e c12d 213f 2b92 0a3f
00000010: a3f6 f1be 0086 f7be 4ba2 123f 7360 2d3e
00000020: 9be2 3c3f dff1 2a3f 9b1d 4f3d dc51 d63e
00000030: 0fa8 1f3f 1e97 de3d 4e49 3e3e b4f8 2e3f
00000040: c452 f1bc ef4d dfbe cba5 653f 53de 25be
00000050: 7886 843e fd6c 553f 749c 37bf 4913 41bf
00000060: 5ccd 27bf 5399 013f b8c3 72bf 57d5 e33d
00000070: 575b 253f 81d4 133f cadf ee3e e3a5 f5be
00000080: 6f60 f23e 58d9 0fbf a8a8 16bf a34b d0be
00000090: 19ba 2ebe 3202 c8be 3374 393f cebd fdbe
000000a0: 856a 0a3f 9cbb 97bd 9734 6cbf 461b 22bf
000000b0: 4ff1 f7be 6b91 cabe 3044 72be 4d0b d33e
000000c0: d0c0 09bf e2e1 583e e86a c93c ac35 e8ba
000000d0: 4f2d 39bf 48e1 21bf c93a 6a3e ce7e 19be
000000e0: 11b3 0e3e ad54 f4be 18e1 aebe 0da8 02bf
000000f0: 9ced 6cbe f63a b8bd d8b8 42be 4ef2 ae3e
00000100: f3ed f1bd 02a9 193e f5f4 3e3e 1678 293e
00000110: 94d6 0bbd 26ef 153e 14da 173e 9c4d 753c
00000120: a375 b43d a330 afb9 e986 d5bc 1b06 0ebe
00000130: a85d 8cba f286 ea3c 8eb5 ae3d c9e2 073e
00000140: a1f1 c83d 5bbf 773d 2238 3e3e fc8c 32be
00000150: 4db8 213d 2248 743e ca7c 86bd acdd a6be
00000160: 6f0e 0dbd 4782 2bbe b7cc 83be 87d2 953c
00000170: 101f ef3c 766e 1f3e 53e2 f93c 1901 143d
00000180: d583 353b cc1c 8ebd 377c 20be e6ab 4b3d
00000190: 6b5f 3dbd 4e8c 323d 65f8 aa3d ae29 9dbc
000001a0: 56c2 1a3d 922e 4bbe 1347 8cbe e723 f9bd
000001b0: 6eb6 3b3e d74a 32bc 914a 38be df87 f63d
000001c0: bf63 0cbd c479 00be 9d6c 413b 42d9 7d3d
000001d0: 5a26 eabd 9fc8 cb3c b5b8 10be ace8 85bd
000001e0: aa1d 6d3d 3016 13be dae0 09bd ac19 0abd
000001f0: c424 6f3c 33b5 9bbb e5a0 d9bd a32f 923c
00000200: 468c 71bf 1275 c93e a91d 3d3f 0675 523f
00000210: 4678 0bbf e4f9 01bf da0e 2f3f 6a93 1b3e
00000220: f4fe 8b3f efd7 1c3f 46ad 153e 31e6 093f
00000230: fabb 4f3f 010d d33e a714 8f3e 4cb8 553f
00000240: 6224 9b3d 6c0d 25bf 4af3 4d3f 561b 1abe
00000250: 71df 693e 5f91 633f 1b02 7cbf 4807 78bf
00000260: 0a50 08bf 35ab d53e 8311 89bf 052a c93d
00000270: a233 0a3f 1dec 363f 4fb4 e33e d18a 23bf
00000280: bdbd 2e3f 6743 15bf 71e1 23bf d3ab 18bf
00000290: 65a1 98be 7e18 f8be 04ec 433f 3c46 2abf
000002a0: 9e30 f43e ee74 c2bb a414 7dbf 73d1 1cbf
000002b0: b354 03bf 192c 09bf bf5d e83c 0473 113f
000002c0: 7a99 14bf a501 cf3d 90ff d6bd d415 da3d
000002d0: e757 0bbf 90bf 41bf 93d6 843e a09c 46be
000002e0: 4691 7f3e a3fb 20bf b007 4cbe dad4 33bf
000002f0: d914 17be c61a 7bbe 0cde 42be e8dc 503e
00000300: abae 53bd ecdd d43c d328 a73d dcfd 08bd
00000310: 9320 013d b810 fbbc 8310 3b3e 2acd 223e
00000320: 171b 6c3e 5e1d b43d c858 fbbd 8b15 be3d
00000330: 858f af3d 3b04 2ebd 5ad4 0fbc d8ec 143e
00000340: 663a d6bd cc03 d9bc e45c 973c 4dae aebc
00000350: 950f f6bd dc14 523e b6b7 66bd b34e 81be
00000360: febd 95bd c151 8c3d 0458 81be cf83 8b3d
00000370: 44c5 6fbc 1131 333d 6e8e bd3d c270 f7ba
00000380: 2882 20bd a3c8 99bd e50b 56bd 24ed e03d
00000390: d7c1 11be 4f4e 073e c5a9 e53c c6f4 23be
000003a0: 352e 2d3e 459f a53c c30f d4bd f391 9b3d
000003b0: d675 aa3d efdb 5d3d c2de 44bc 4f47 7f3d
000003c0: 7035 44bd f863 d2bd 6c30 e53d c333 66bd
000003d0: 5476 07be e417 d53d 4dc6 35be 8db9 74bd
000003e0: 5c02 7bbd 1fa3 b2bd e6cc 7e3c 8149 3cbb
000003f0: 7b85 18be b9e1 dc3c dce0 323c b99b 1e3e
-0.7746922 0.39443958 0.6296044 0.54129285 -0.4725848 -0.4834442 0.5727889 0.16931324
0.7378327 0.66775316 0.050565343 0.4185933 0.6236581 0.10868667 0.18582651 0.6834824
-0.029458411 -0.43614146 0.89706105 -0.16198091 0.25883842 0.8336943 -0.71723104 -0.7542005
-0.6554773 0.5062458 -0.94829893 0.11124676 0.645925 0.5774613 0.46655113 -0.47978124
0.47339198 -0.56191015 -0.588511 -0.40682706 -0.17063178 -0.39064175 0.7244293 -0.49558872
0.54068786 -0.074088305 -0.92267746 -0.63322866 -0.4842629 -0.3956407 -0.23658824 0.4121956
-0.53809834 0.21179917 0.02458711 -0.0017716191 -0.7233476 -0.63234377 0.22873987 -0.14989778
0.13935496 -0.47720852 -0.34156108 -0.51037675 -0.23137516 -0.08995621 -0.19015825 0.3416924
-0.11812963 0.15005878 0.18648131 0.16549715 -0.034140185 0.14642009 0.14829284 0.014972117
0.088115 -0.00033414838 -0.026065307 -0.13869517 -0.0010709064 0.0286288 0.085307226 0.13270105
0.09811712 0.060485225 0.185761 -0.17436594 0.039482404 0.23855641 -0.065667704 -0.32590997
-0.034437593 -0.16748916 -0.25742123 0.018288864 0.029189616 0.15569481 0.030503428 0.03613386
0.0027696986 -0.06939086 -0.15672384 0.049724482 -0.046233576 0.043590836 0.08348159 -0.019184913
0.03778299 -0.19841984 -0.27397975 -0.12165051 0.1833131 -0.010882101 -0.17997195 0.12037634
-0.034274813 -0.1254645 0.0029514201 0.06197477 -0.11433096 0.024875937 -0.1413296 -0.06538519
0.057889618 -0.14363933 -0.0336617 -0.03371589 0.014596168 -0.0047518252 -0.10626391 0.01784498
-0.94354665 0.3934713 0.7387338 0.82209814 -0.544804 -0.5077193 0.68382037 0.15192953
1.093718 0.6126699 0.1461688 0.5386687 0.81146204 0.4122086 0.27945444 0.8348434
0.07575299 -0.64473605 0.80449355 -0.1504949 0.22839142 0.88893694 -0.9844071 -0.9688611
-0.5324713 0.41732183 -1.0708469 0.09822468 0.53985035 0.7145403 0.44473502 -0.6388369
0.6825827 -0.5830597 -0.6401587 -0.5963718 -0.29810634 -0.48456186 0.76532006 -0.6651342
0.47693342 -0.0059343493 -0.9885962 -0.61257094 -0.51301116 -0.5358291 0.028365014 0.56816125
-0.58046687 0.101077355 -0.104979634 0.10648695 -0.54431003 -0.75682926 0.25944957 -0.19395685
0.24957761 -0.6288397 -0.19924808 -0.7024666 -0.14754046 -0.24521932 -0.19030017 0.20396769
-0.05168025 0.025984727 0.081620835 -0.033445224 0.031525206 -0.03064762 0.18268017 0.15898576
0.23057209 0.08794664 -0.12272793 0.09281453 0.08572296 -0.042484503 -0.008778656 0.14543474
-0.10460357 -0.026491068 0.01847691 -0.021323347 -0.12014691 0.2051577 -0.056327544 -0.25255355
-0.07311629 0.06851531 -0.25262463 0.0681225 -0.014634434 0.043747965 0.09255682 -0.0018878209
-0.039186627 -0.075089715 -0.052257437 0.10982731 -0.142341 0.13213466 0.028035054 -0.16011342
0.16912158 0.020217547 -0.10354569 0.07596197 0.08323257 0.054164823 -0.012016 0.062323865
-0.047902524 -0.10272974 0.11190876 -0.056201708 -0.13228732 0.104049474 -0.17751427 -0.059747268
-0.061281547 -0.08722519 0.015551781 -0.0028730335 -0.14894669 0.026963102 0.010917868 0.15489091

lstm.weight_hh_l1 f4 [256, 64]
00000000: fb09 9bbe 86e6 893d 7587 7cbe 9b54 2c3e
00000010: cca1 54be 5802 433e 2a07 2b3e b265 8dbe
00000020: 0fd1 c93d f3cc 773c 4fc2 583e 33ef b9bd
00000030: ae50 17bd c099 0d3e 2ba1 223e da30 3ebd
00000040: 39ea 933e a939 81be 914d b8ba 2566 423e
00000050: 2310 c2be d2fb a53d 15e1 5fbc 74a0 1bbf
00000060: 0a49 0cbc 1223 1b3e dfa5 173c b392 8abe
00000070: e1e6 ad3e 3e98 c5bd 8f61 38be 95ed 83be
00000080: 464c 863e 63d2 c63e 8674 5dbe 2c13 ed3c
00000090: 53f2 33bd f8a8 853e 9e26 5f3d fb5a 173d
000000a0: 4341 f63d e35b f8be b3a7 063e b428 03be
000000b0: 5c12 323c 8aa6 fc3e 77f3 aabd e596 86be
000000c0: 1e06 613e a3ca 6c3e abf0 843c f482 803d
000000d0: 7d14 cbbe cd04 ccbe 01b5 8a3c e8e0 04be
000000e0: 6567 23be 4601 1cbd 92c5 d73d 8a50 5cbd
000000f0: 6815 8bbe ec33 c23e 7bf5 3fbd 1f9c b0be
00000100: aade 233d 4b79 233c c7a4 203e cc47 2ebc
00000110: 2c56 3d3e b97c 34bc 845d dfbd d612 d33e
00000120: 48ee 873d 22bd ad3d 7b29 08be e0dc 84be
00000130: f058 b4bd f902 483d a009 51be 3550 48bd
00000140: 78bd 4a3c c261 84be 38dd f4bd f78e 1dbe
00000150: 4e3a b7be c19d 1ebd 944f 86bb 0728 23bf
00000160: 1d6a e93d c3b2 9fbd 6a32 583d 3eb0 003e
00000170: 08c1 2cbe 4778 0e3e d39f 0a3d 9318 763c
00000180: 901f f3bd 3b3c 6dbd 20c9 313e 4e35 d93c
00000190: 1bbc 223e 93a8 54bd ae50 013e c86d 27be
000001a0: 0179 8eba 131f 033d b8ba 06be 1182 bc3e
000001b0: 607b a5bc 3b75 063e ec16 0dbb e9d5 86bd
000001c0: 6f60 38be 3dce 5cbe f8fb 42be 7be9 53be
000001d0: 9665 9c3e 8030 8f3d 8628 d93d 5bd8 72be
000001e0: e30f 70bd 8280 3e3e 61a6 d43d f817 043d
000001f0: dc5b 343e 75f5 b23d 7784 0ebe 24dc d93c
00000200: 587a d3be e595 ce3c 48cd 5abd 75a4 703d
00000210: 5b95 6ebd 2b7c e13d 20fd dd3d be4c 1fbd
00000220: e5fa b5bd 600b 07bd 0517 a53e d1df dfbd
00000230: fa19 51be 59c8 963e b57b e4bc 37a6 69be
00000240: 8cf1 7d3e 2b3b e6be 08d8 1e3e e649 663e
00000250: e70e 8ebe 1f72 19bc 0753 b53d 774a 70be
00000260: 805e a5bd 2a32 053d df46 f5bd 4a7e b2be
00000270: c31e df3d 01a5 f2bd 93af 93be 4549 04bd
00000280: 42d9 b73e b20a bb3e 712f 8c3c d3a7 b13d
00000290: b666 77be 22bc bf3e 1aee 813d 3bf7 293e
000002a0: 2604 1d3e 63ad a1be 13c2 f83d a40c 9ebd
000002b0: 71e3 d1bc c766 0c3f 51cb f0bd fa4b 8bbe
000002c0: 2133 f33d a499 95bc 6710 3fbd 8fb3 663e
000002d0: 5f24 b2be 8306 c8be 6b2e 06be 9c86 243d
000002e0: b651 9ebe 7ebe 9c3d fc31 d73d c814 963d
000002f0: 8b74 09bd e703 783e 8d24 9bbc 82f1 6ebe
00000300: e58d bb3d 415b f03c 12f7 413e 86f9 8cbb
00000310: 9ba8 a03e cc77 443e 300e 2dbe 137f a23e
00000320: 644e f9bd 36d3 24bd 34b5 26be a8de 84bd
00000330: 65a2 a13c 3157 b8bd 08b6 34be ab07 19bd
00000340: 4e50 2b3d a1d7 afbe 3772 82bd c0f3 94be
00000350: 4050 adbe 1b09 b93d 7d25 c4bd 2939 2bbf
00000360: cafc a23e 01af 6dbe 89b8 93bc e530 29bd
00000370: ecce 80be 2b1a e03d 2041 3a3e 6a59 00be
00000380: 2acb c3bd b965 053e 3ea5 ab3d 3ae6 5fbe
00000390: a974 6f3e 8206 21be faeb 1c3d 3213 8dbe
000003a0: 2c6b 473e e2a2 b33d 59f8 92be 253c 803e
000003b0: a136 a6bb ba66 903d dfb6 ee3d 0f79 eb3d
000003c0: f507 2dbe 7264 84bd 1864 53be 5cae eabd
000003d0: bda1 883e aaae 8a3e e949 fdbc fa0e adbe
000003e0: 2601 be3d 4b5f 473e 1435 1a3e 09f2 a43d
000003f0: 96c4 0f3e bb86 15bd 53cd 7ebd 8479 813e
-0.30281052 0.06733422 -0.24661048 0.1682915 -0.20764846 0.19043863 0.16701952 -0.2761665
0.09854328 0.015124547 0.21167873 -0.09078827 -0.036942177 0.13828182 0.15881793 -0.046433307
0.28889635 -0.25239304 -0.0014061203 0.18984278 -0.37902936 0.081046715 -0.013664504 -0.6079171
-0.008562336 0.15150097 0.009255855 -0.27065048 0.3396521 -0.096481785 -0.18005966 -0.25767198
0.26230067 0.38832387 -0.21626481 0.028939806 -0.04393227 0.26105475 0.054480188 0.036952
0.120241664 -0.48507604 0.1314991 -0.12808496 0.010868635 0.4934581 -0.083472185 -0.26286998
0.2197499 0.23124175 0.01622804 0.06274977 -0.3966407 -0.39847413 0.016932013 -0.1297642
-0.1595741 -0.038087152 0.105357304 -0.053787746 -0.2716477 0.37930238 -0.046864968 -0.3449411
0.04000727 0.009977649 0.15687858 -0.010637235 0.18489903 -0.011016064 -0.109065086 0.41225308
0.066372454 0.0848334 -0.13297074 -0.25949764 -0.08806026 0.04883096 -0.20413828 -0.048904616
0.012374274 -0.25855833 -0.11956257 -0.15386568 -0.3578667 -0.038724665 -0.004098842 -0.6373295
0.113971926 -0.07797768 0.052782454 0.12567231 -0.1687051 0.1391307 0.033843827 0.015020507
-0.118712544 -0.05791877 0.1736188 0.026514675 0.15892069 -0.051918577 0.12628433 -0.16350472
-0.0010869802 0.032012057 -0.13157165 0.36817983 -0.020200431 0.13130657 -0.0021528555 -0.06583769
-0.18005536 -0.21563049 -0.19041431 -0.20694534 0.30546254 0.069916725 0.10603432 -0.23715346
-0.0586089 0.1860371 0.10383297 0.03224942 0.17613167 0.087382235 -0.13917719 0.026594229
-0.41304278 0.02521796 -0.053418428 0.05875059 -0.058247905 0.11010011 0.108392954 -0.038891546
-0.08885745 -0.032969832 0.32244125 -0.109313615 -0.20420066 0.29449728 -0.02789102 -0.22817312
0.24799174 -0.44967017 0.15512097 0.22489128 -0.27745745 -0.0093655875 0.08853727 -0.23465906
-0.08074665 0.032518543 -0.11976408 -0.34861976 0.10894539 -0.11847878 -0.2884489 -0.032296438
0.35907942 0.36531597 0.017112466 0.08674588 -0.24160275 0.3744822 0.063442424 0.16598217
0.15333614 -0.31577596 0.12146392 -0.07717255 -0.025621148 0.54844326 -0.117575295 -0.27206403
0.118749864 -0.018261738 -0.046646502 0.22529434 -0.34793374 -0.39067468 -0.13103645 0.040167436
-0.30921715 0.07653521 0.10507581 0.073281825 -0.03355841 0.24220239 -0.018938327 -0.23334315
0.091579236 0.029340388 0.18941906 -0.0043022064 0.31378636 0.19186324 -0.16899943 0.31737575
-0.12173155 -0.04024049 -0.16280061 -0.06487781 0.019730756 -0.090010054 -0.17647564 -0.03736083
0.04182463 -0.343442 -0.06369441 -0.29092216 -0.33850288 0.0903494 -0.09577463 -0.66884094
0.31833488 -0.2321129 -0.01803233 -0.041306395 -0.2515787 0.10942491 0.18188906 -0.12534109
-0.09560235 0.13027085 0.08381127 -0.21865168 0.23384346 -0.15725139 0.038310982 -0.27553707
0.19474477 0.08771302 -0.287051 0.25045887 -0.0050724302 0.070508435 0.11655974 0.114976995
-0.16897567 -0.06464471 -0.20643651 -0.11459038 0.26685897 0.27086383 -0.030919032 -0.3380049
0.09277563 0.19469945 0.1505931 0.08053977 0.14039835 -0.036505442 -0.06220753 0.25288022

lstm.bias_ih_l1 f4 [256]
00000000: 7c9c 15bf 7381 b2bf 750b f3be 8c92 b4bf
00000010: 496b 09bf 27de b1bf 2339 0ebf 02b6 f4be
00000020: a37d 85bf 5b8d b8bf 9716 0ebf cc8a bdbf
00000030: 0d9d c0bf 081a 24bf 10ad e3be a6bf 97bf
00000040: 5946 babf 0b17 28bf 30ca b3bf a43d 96be
00000050: de59 6cbe da42 c0bf 298b a8bf 14d2 3c3f
00000060: 00ef a4be 0327 a1bf dead 8cbf 450c 71bf
00000070: e765 04bf daec b4bf e912 03bf 9a98 c3bf
00000080: 5144 3dbf 1b5f 6dbf 3f6d 41bf d58d 48be
00000090: 47be 87be c6c5 8bbd 57b2 febe a20b 98bd
000000a0: 7be3 b0bf 2182 98bf c462 17bf 1e97 66be
000000b0: 94a7 56be 9094 17bf e6d5 9fbf 6f36 92bf
000000c0: e556 00bf d093 c1be a280 5fbf 1a45 cbbe
000000d0: 9fd3 09bf 7a62 95be 78ed 99bf 8128 c3be
000000e0: 0bd8 90bf db59 4abf 860e b6bf f307 bdbf
000000f0: 154d eebe 16ab 2abf fd37 c0bf 860e 1abe
00000100: a65c 9bbe 820b 2fbf 9433 0bbe f68a 2fbf
00000110: d03f cabe a2c4 17bf c55c 87be 2b44 7bbe
00000120: 29cf 54bf 803b 33bf f593 f8be a1e7 2abf
00000130: a6bb 3bbf 563f 70bf e9ce a9bd 4235 74bf
00000140: 5b63 18bf 419b e1be cf8e 32bf 47b7 aabe
00000150: 1370 093e 4b80 28bf e05a 47bf 7a2d 19be
00000160: e558 99be 687c 24bf 684e 34bf eb07 50bf
00000170: e697 01bf 6fbf 03bf a088 a4be 5524 1cbf
00000180: 2d03 f3be a0b6 2dbf a3c2 e5bd a2d1 a0be
00000190: 8782 e5be 0717 48be 75e2 c9be 67de 85be
000001a0: c146 19bf 77a2 e0be f1ef 16be b24b 09bf
000001b0: 88a6 91be 7a29 c1be edde 43bf 6b0d 0fbf
000001c0: b1fc d3be fd0b ddbe 84db e4be 7b98 05be
000001d0: f391 a0be a20b c9be 9d9e 33bf 51cc c8bd
000001e0: 7cc0 1fbf 28fd 30bf 477f f9be 9c2c 47bf
000001f0: bd77 b7be 63a3 9dbe db94 22bf eb1a b3be
00000200: 5b7a 75bd e0c6 763d 09fc b63d 2c18 71bd
00000210: d8f9 333a 1b16 40bc 67f3 8fbd baa0 153d
00000220: 44bf 06bd 3ef2 923d 4eaa 99bc f564 b1bc
00000230: bc1e 323d 11fd c1bc 4c97 623c 968d 543d
00000240: e55a 4abd b83e e83c 16fd 693d 9616 11be
00000250: 377d 2abd dd38 873d 8a1f adbd e66d 183e
00000260: 04f6 61bc 60be 69bd c17c 523d f6e1 343a
00000270: 9421 e6bb 967a e53c 48c7 883d 3b82 c33d
00000280: 5490 e2bc 211e 0c3d 7527 a13c 7259 b83d
00000290: 650e 97bd e082 9a3d 9e1e caba 2c82 9fbd
000002a0: 3b83 853d 2fee bfbd 7679 02be 4025 edbc
000002b0: 4684 a83d 3ee9 9fbc f1ac 18bd 98f9 13bd
000002c0: a394 fcbd 2dec 65bd 1b70 873d 1696 71bd
000002d0: 52c0 613d 38de 0ebd f8e1 843b 8c1b 87bd
000002e0: 85a9 d23c e12e b93c 22a4 87bc 2b84 683c
000002f0: d043 5337 9880 cabd 7824 9ebd 234e 2fbd
00000300: 84c3 1ebf 4fcc b6bf c410 07bf 3632 b7bf
00000310: 1128 07bf a44e b6bf 0dff cdbe 145d 05bf
00000320: d5c2 7ebf 06ce a9bf 3a18 1dbf 72e7 a6bf
00000330: 8996 b4bf 4087 3bbf 1bbe 16bf eb27 a8bf
00000340: e42b bfbf e5ee 26bf 2339 a6bf 096e 2ebe
00000350: 5838 3c3d 55b6 a8bf b628 a1bf 3b46 d13e
00000360: 0f07 72bd ab95 b2bf dcd2 83bf ec25 71bf
00000370: 66a6 c0be cc27 bdbf a7f8 1ebf 9479 aabf
00000380: 2036 51bf 0c1d 8abf f679 4dbf 3f21 e8bc
00000390: 2d0b 36be f52b 5abe 899c bfbe 15a1 54bd
000003a0: 9519 acbf 3b1c 92bf 4029 ddbe 56f6 47be
000003b0: 9e24 4abe a485 17bf 85eb 8abf bd0e 74bf
000003c0: 6325 cbbe 88fe debe ee9b 30bf 4e3b e5be
000003d0: ffd6 1dbf 1430 fdbe 4d9d 9fbf 36bb b9be
000003e0: f13a 95bf 76a3 57bf 5c34 b9bf e76d bfbf
000003f0: 0b3f b3be 82f5 2cbf d153 bbbf 568d 6cbe
-0.584419 -1.3945755 -0.4746968 -1.4107223 -0.5367933 -1.389592 -0.55555934 -0.4779511
-1.0428966 -1.4418138 -0.5550322 -1.4807982 -1.5047928 -0.6410222 -0.44467974 -1.1855361
-1.4552718 -0.6566016 -1.4046078 -0.29343903 -0.23081157 -1.5020401 -1.3167468 0.73758054
-0.32213593 -1.259003 -1.099056 -0.94159347 -0.5171799 -1.4134781 -0.5120073 -1.5280945
-0.7393237 -0.92723244 -0.7555732 -0.19585355 -0.26512358 -0.06824832 -0.49745438 -0.07424094
-1.3819422 -1.1914712 -0.5913508 -0.22518584 -0.20962363 -0.59211063 -1.2487152 -1.1422862
-0.5013259 -0.37808084 -0.87305653 -0.39701158 -0.53838533 -0.29176694 -1.2025595 -0.3811684
-1.1315931 -0.7904336 -1.4223182 -1.4768051 -0.46543184 -0.66667306 -1.5017086 -0.15044603
-0.30344123 -0.68376935 -0.13593894 -0.6857141 -0.3950181 -0.5928441 -0.26437965 -0.24537723
-0.831286 -0.70012665 -0.48550382 -0.6675969 -0.73333204 -0.9384664 -0.08291418 -0.95393765
-0.59526604 -0.44063762 -0.6974916 -0.33342955 0.13421659 -0.6582076 -0.7787304 -0.14958754
-0.29950634 -0.6425233 -0.7043214 -0.8126208 -0.50622404 -0.5146398 -0.32135487 -0.6099294
-0.4746336 -0.6785679 -0.11218765 -0.31409937 -0.44826147 -0.19540034 -0.39430586 -0.26146242
-0.59873587 -0.4387395 -0.14739968 -0.53631127 -0.28447366 -0.37726957 -0.7651203 -0.5587985
-0.41403726 -0.4317321 -0.44698727 -0.13046448 -0.3136135 -0.39266688 -0.701639 -0.09804595
-0.6240308 -0.69136286 -0.48729917 -0.77802444 -0.3583354 -0.30788717 -0.63508385 -0.34981474
-0.05993114 0.060248256 0.08934791 -0.058860943 0.0006865538 -0.01172402 -0.07028847 0.036530234
-0.03289725 0.0717511 -0.018757965 -0.021654585 0.04348634 -0.023680242 0.013830017 0.05189284
-0.04940309 0.02835022 0.057126127 -0.14168772 -0.04162332 0.06602643 -0.08453281 0.14885673
-0.013791565 -0.05706632 0.051388506 0.0006900126 -0.007023046 0.028012555 0.06678635 0.09546324
-0.027656712 0.03420842 0.019672135 0.09001435 -0.073757924 0.07544494 -0.0015420502 -0.077885
0.06519171 -0.09371602 -0.12741646 -0.028948426 0.08228354 -0.019520398 -0.037274305 -0.036126703
-0.12333038 -0.056133438 0.06613179 -0.058981024 0.05511505 -0.034879893 0.004055258 -0.06597051
0.025715599 0.022605361 -0.016557757 0.014191668 1.2592369e-05 -0.098878086 -0.077217996 -0.042799126
-0.62017083 -1.42811 -0.5275996 -1.4312198 -0.5279551 -1.4242749 -0.4023365 -0.5209515
-0.9951604 -1.3265998 -0.6136509 -1.3039382 -1.410844 -0.7325325 -0.5888383 -1.3137182
-1.4935269 -0.65208274 -1.2986187 -0.17034163 0.04595217 -1.3180643 -1.2590549 0.40873894
-0.059088763 -1.3951925 -1.0298724 -0.9419849 -0.37626952 -1.477777 -0.62098163 -1.3318353
-0.81723213 -1.0790114 -0.8026422 -0.028336165 -0.177777 -0.21305831 -0.37424114 -0.051911432
-1.3445307 -1.1414865 -0.43195534 -0.19527563 -0.19740531 -0.59188294 -1.0853125 -0.9533499
-0.3967696 -0.43553567 -0.6898793 -0.44771808 -0.61656183 -0.49450743 -1.2469879 -0.36275643
-1.1658612 -0.84233797 -1.4469104 -1.4955415 -0.35009035 -0.67562115 -1.4634954 -0.2310079

lstm.bias_hh_l1 f4 [256]
00000000: c434 c5be acc0 bcbf 3137 01bf b0d9 afbf
00000010: 2ca2 0dbf 6317 bdbf 3114 17bf 08c4 17bf
00000020: 4e4f 8dbf c372 bbbf 136d 1ebf b573 b6bf
00000030: 65c7 c8bf 1ec2 21bf 0814 0cbf 5e55 a6bf
00000040: 6501 c3bf 03b4 2cbf b606 a1bf 146e c8be
00000050: 7e09 7dbe 10f5 c2bf ad30 b7bf 8672 163f
00000060: 34ab b6be 27fb aabf 144c 82bf c908 68bf
00000070: e4f6 e8be 6dd3 acbf 6525 19bf a805 aebf
00000080: 278c 5abf 2538 65bf 756a 3bbf 325b 87be
00000090: 2124 e2bd 10f0 bfbd a83e 03bf 8c88 643c
000000a0: 975e c5bf 5f31 91bf 6280 e2be aa59 b3be
000000b0: 9c2a 26be 0b66 0cbf 906a 9dbf f3ae 81bf
000000c0: 3b83 c1be 8f9e 0bbf 8d4b 72bf 73b7 eebe
000000d0: 063b 08bf 24b4 8fbe fab5 9fbf 6f52 0dbf
000000e0: a1e9 a6bf 54cc 69bf 442f bebf 225c babf
000000f0: b69a 0dbf 0279 2bbf bb0a babf acb7 88be
00000100: b8ff bcbe 7e9e 40bf cc49 96be 1693 19bf
00000110: dcee e3be 67bd 20bf af6b 98be c354 9dbe
00000120: 2316 4abf 3aec 30bf 13d8 f1be 8232 25bf
00000130: baa7 2cbf e42e 94bf 9e1f 85be 7fb2 46bf
00000140: 6a76 ddbe 0d90 d8be 6bcf 25bf 7104 e2be
00000150: b7ef 04bd 79f5 39bf deed 27bf c267 743b
00000160: 6f78 c9be 949b 37bf 700d 55bf 3ff9 2dbf
00000170: a6e3 03bf 910f 39bf adab 00bf 07cc 3ebf
00000180: 6125 1cbf d084 41bf 3fe9 1abe 0d72 71be
00000190: 7d7a e0be 0203 9dbe cd25 83be 4986 83bd
000001a0: 4eb0 2bbf bef6 08bf 201a d2bd c359 e6be
000001b0: d2ee adbe 9747 81be 0f22 3cbf 210d 19bf
000001c0: 81e0 a3be e79a 6fbe d80a fbbe 5c0d b0be
000001d0: 8b5a 88be f611 ddbe 2d04 2fbf c6ee 03be
000001e0: 7851 23bf d210 3bbf c57b 35bf ae37 33bf
000001f0: e499 74be 71f9 95be cb05 4abf 93b9 8abe
00000200: 5ef5 083e 084e 8abd e928 2abd 38f8 653d
00000210: 60d8 6ebd da93 c93c e17a 173c e42f 1c3b
00000220: dca5 fa3c a41c b3bd c74d 1f3d e9b5 e03c
00000230: 29b2 19bd 2f84 8f3c 283a c5bd 268b 2dbd
00000240: 77a8 0c3d 127a b1bc 2764 7bbd 61b7 3f3d
00000250: 86ec 483c 894b 8ebd 8643 b53d bc82 2a3e
00000260: 1242 513c 02a9 573d 1899 98bd 9b6c 743b
00000270: 9f7d e7bd 6d58 96bc 09ee 5abd b7b3 b0bd
00000280: 363d 933c 75a6 133d f357 42bc 2c7f dbbd
00000290: 0b76 893d 5433 663d e95a 03bc 17e7 7c3d
000002a0: a35c 7cbd e5b6 d63d ce7e 6c3d 154b 373c
000002b0: a9c0 1b3d 0289 2b3d 3ac6 303d 1953 8e3d
000002c0: e3f7 4ebd b215 fcbd 72a1 96bc 39f3 243d
000002d0: 4d09 a63c 963a 353d f721 64bc 5e54 c13d
000002e0: 2d43 c1bc 2894 6ebc 51b7 e73c f0bf 27bc
000002f0: a4c6 963b 4fa8 fa3d e920 5e3d 9ed3 963c
00000300: 1d1b e7be 99de b3bf 3d59 ffbe 8e6f bbbf
00000310: d409 b8be 1416 aabf df63 a9be 3cbc cebe
00000320: 6bf1 88bf 5a72 b0bf 532f f3be 4b94 a1bf
00000330: 9743 b3bf 76ef 0ebf 0e45 edbe c3d8 a4bf
00000340: f6bb bcbf 6114 11bf 9b3c bbbf 4dfc 99be
00000350: f4e3 623d 4365 c1bf d048 a7bf 1fa9 b03e
00000360: a535 42be ed1b 9abf 9b1d 89bf 0520 89bf
00000370: 74c8 f7be 9fdf a5bf 13b1 debe 8d02 acbf
00000380: c056 3abf 25c4 7abf 1a78 50bf 1c34 21be
00000390: 213c 34be 0110 f2bd 7ff1 a1be 6603 923d
000003a0: 03fa a7bf 1106 94bf 30ce eebe 89f6 d7be
000003b0: fa98 99be c895 03bf 95f8 8dbf 03b8 65bf
000003c0: 3bc4 dabe 5e6c aebe 94a0 4ebf 489a d6be
000003d0: 2969 e1be 6311 01bf 3ba9 8dbf b2a8 99be
000003e0: 41f3 8fbf 942a 56bf 877f abbf 662c c1bf
000003f0: 7e00 15bf 3081 1fbf 651b b1bf 357f a5bd
-0.3851682 -1.4746299 -0.5047484 -1.3738308 -0.5532558 -1.4772762 -0.59015185 -0.59283495
-1.1039827 -1.4644397 -0.61885184 -1.4254061 -1.568585 -0.63186824 -0.54718065 -1.2994802
-1.52348 -0.67462176 -1.2580173 -0.39146483 -0.24710652 -1.5231037 -1.431173 0.587685
-0.35677493 -1.3357896 -1.0179467 -0.90638405 -0.45500863 -1.3502022 -0.59822685 -1.3595476
-0.85370106 -0.89538795 -0.73209316 -0.26436764 -0.11042047 -0.0937196 -0.5126748 0.013948571
-1.5419492 -1.1343192 -0.44238573 -0.35029346 -0.16227192 -0.54843205 -1.2298145 -1.0131515
-0.37795433 -0.54538816 -0.9464653 -0.46624336 -0.5321506 -0.28067124 -1.247741 -0.5520391
-1.3040048 -0.91327405 -1.4858174 -1.4559367 -0.55314195 -0.6698152 -1.4534525 -0.2670263
-0.36913848 -0.7524184 -0.29353178 -0.5999006 -0.44518173 -0.62789005 -0.29769656 -0.3072873
-0.7894003 -0.69110453 -0.47235164 -0.64530194 -0.6744343 -1.157681 -0.26000684 -0.77616113
-0.43254405 -0.42297402 -0.6476962 -0.44144014 -0.032455172 -0.72640187 -0.6559733 0.003729329
-0.39349696 -0.7172177 -0.8322363 -0.67958444 -0.5151924 -0.7228938 -0.50261956 -0.7453007
-0.60994536 -0.7559328 -0.15128039 -0.23578663 -0.4384345 -0.30666357 -0.25614777 -0.06422097
-0.67065895 -0.535015 -0.10258889 -0.44990358 -0.33971268 -0.2524993 -0.7348947 -0.5978566
-0.3200722 -0.23398934 -0.4903171 -0.34385192 -0.2663158 -0.43177766 -0.68365747 -0.12884054
-0.63796186 -0.7307254 -0.7089198 -0.70006835 -0.2388683 -0.2929187 -0.7891509 -0.27094707
0.1337485 -0.067531645 -0.04154292 0.056144923 -0.05831182 0.024606634 0.009245605 0.0023832256
0.030596666 -0.08745697 0.038892534 0.027430492 -0.037523422 0.017519085 -0.09630233 -0.04236903
0.034340348 -0.021664653 -0.06137481 0.046805743 0.012263423 -0.06948001 0.0885077 0.16651434
0.0127721 0.052651413 -0.07451075 0.003729618 -0.11303257 -0.018352712 -0.053449664 -0.08628028
0.017973524 0.036047418 -0.011861789 -0.107176155 0.06711968 0.056201294 -0.00801728 0.061743822
-0.061611783 0.10484103 0.057738118 0.011187335 0.038025532 0.041878708 0.043157794 0.06949443
-0.050529372 -0.123088256 -0.01838753 0.040271018 0.020268107 0.044245325 -0.0139241135 0.0943992
-0.023591602 -0.01456169 0.028285654 -0.010238633 0.0046013165 0.122391336 0.054230604 0.018411454
-0.45137873 -1.4052306 -0.4987277 -1.4643419 -0.35944998 -1.3287988 -0.33084008 -0.40377986
-1.0698675 -1.3784897 -0.47497043 -1.262338 -1.4005002 -0.5583414 -0.46341747 -1.287865
-1.4744861 -0.5667172 -1.462787 -0.30075303 0.055393174 -1.5109028 -1.3069096 0.3450403
-0.18965776 -1.2039772 -1.071216 -1.0712897 -0.4839512 -1.2958869 -0.43494472 -1.3438278
-0.7278862 -0.9795554 -0.8143326 -0.15742534 -0.17601062 -0.11819459 -0.3162956 0.071295545
-1.3123173 -1.1564351 -0.46641684 -0.4218028 -0.29999524 -0.51400423 -1.1091486 -0.89733905
-0.42727837 -0.34067053 -0.8071377 -0.41914582 -0.44025543 -0.50417155 -1.106727 -0.30011517
-1.124611 -0.8365872 -1.3398293 -1.5091674 -0.58203876 -0.623065 -1.3836485 -0.080809034
